checkpoint_critic.pth (torch_old, 159801 bytes, 5 tensors)

fc1.weight f4 [256, 24]
0.04763456 0.012768471 -0.022022258 -0.019459322 -0.10400422 0.012436951 0.007684238 0.0027500489
-0.008439798 -0.06256864 0.038413163 -0.08337575 -0.099182375 0.08714721 -0.03766197 -0.042926457
0.08756883 -0.019469906 0.015993979 -0.07032983 -0.14509395 0.039240237 -0.025638344 -0.08190438
0.003354734 -0.041750487 -0.041336793 -0.06016405 -0.004601788 -0.11608276 -0.00978198 -0.05722568
0.059119582 0.030674541 0.009037321 0.009385766 -0.041267313 -0.05084521 0.030035453 -0.02259723
0.07164813 0.027648255 0.023218455 0.05871798 -0.056117367 0.13321792 0.030029157 -0.020538447
0.045426123 0.09743194 0.036727063 0.057502568 -0.03600394 0.003204789 -0.05741408 0.08105933
0.0068227947 0.025314493 0.00019012715 -0.010543608 0.057461303 0.03912284 0.0067223473 0.0652882
0.042016894 0.027524626 0.043139458 0.03628864 0.04070213 0.025155721 -0.01468285 0.07185512
0.02912005 -0.011275715 0.031295236 -0.040643353 -0.0092029935 0.027207457 0.008111779 0.020415049
0.013282154 0.023285627 0.02777678 -0.048321817 -0.04061837 -0.0002266831 -0.016988948 0.040011466
0.016412634 -0.02659248 -0.0024968681 0.07284645 -0.25327125 -0.07717127 -0.04978644 0.011279317
0.03357816 -0.017167492 -0.002513278 0.043947756 0.14534086 -0.1302891 0.011268012 -0.06007772
-0.023659566 0.020379579 -0.030419735 -0.05195013 0.15996169 -0.03170651 0.028096588 0.041636933
0.0011350148 0.013041274 -0.04229547 0.0062123626 0.11768716 0.14511438 0.04367066 0.022896871
0.008263237 -0.031795036 -0.0047770636 -0.019842146 -0.06011413 -0.12821789 0.040819164 -0.025132898
0.060441997 -0.09338506 0.040359084 -0.046608295 -0.024138674 -0.09212622 -0.018972741 0.014377955
0.016732061 -0.05594721 -0.008989962 0.028520748 -0.011902827 -0.09576097 -0.060857076 0.013520271
-0.0036167272 -0.005498692 -0.0006595172 0.013590426 0.094589315 0.083982944 0.02177294 -0.0711022
-0.026767785 0.031204911 0.0012335345 0.02638463 -0.01485802 0.04609535 -0.0028666405 0.013248717
0.030166868 0.054971334 0.043606654 0.058990784 -0.112280145 -0.1343902 -0.05461876 -0.0014067364
0.06877952 -0.027617868 0.011018847 0.020164771 -0.0544677 -0.09648588 -0.056762923 -0.027205123
0.066960104 -0.038184334 0.0152181005 -0.028865466 0.060456183 -0.17037907 -0.049434055 -0.020590976
0.0029212679 0.045656458 0.03982422 -0.025150243 0.010374518 -0.016569462 0.038107533 0.03750642
-0.018004196 -0.06400144 -0.001075661 -0.03827611 -0.0022454038 -0.05646772 0.039509933 0.007957899
0.03045557 -0.048065785 -0.015975922 -0.008046943 0.049501937 -0.06873265 -0.04266328 -0.024234537
0.008060874 -0.047195945 0.040009215 -0.06337066 0.101711 0.16441178 0.006338533 -0.033770848
0.0056401296 -0.0016891295 -0.0027206738 0.058565084 0.078332245 0.0023706625 -0.005218014 -0.031625774
0.0072586127 -0.030364458 0.043468602 0.00877858 0.24914433 -0.035103694 -0.0066511994 -0.0008249039
-0.022965105 0.00906007 -0.03304458 0.0010853781 0.31950185 0.04539279 0.0231894 0.002962195
-0.06164683 0.068962626 -0.031823505 -0.031358995 0.0139082875 0.037318878 0.017232459 0.02688416
-0.011717083 -0.0005421945 -0.009095211 -0.031816687 0.03200989 0.01847194 0.023909263 0.03953024
00000000: 751c 433d d932 513c 0668 b4bc 2869 9fbc
00000010: 2a00 d5bd 5ac4 4b3c 0fcc fb3b 2a3a 343b
00000020: 1447 0abc fd23 80bd 1f57 1d3d e8c0 aabd
00000030: 2120 cbbd 3d7a b23d 7043 1abd a7d3 2fbd
00000040: 4957 b33d 5a7f 9fbc ce05 833c 1609 90bd
00000050: 8293 14be 5fba 203d 8107 d2bc 7cbd a7bd
00000060: 19db 5b3b 8f02 2bbd c550 29bd 946e 76bd
00000070: 98ca 96bb ccbc edbd 9944 20bc 7a65 6abd
00000080: 6027 723d 2d49 fb3c 4611 143c c2c6 193c
00000090: ea07 29bd 1143 50bd e90c f63c d31d b9bc
000000a0: 41bc 923d 987e e23c a134 be3c 4482 703d
000000b0: 53db 65bd 476a 083e b5ff f53c 3f40 a8bc
000000c0: be10 3a3d 668a c73d 1e6f 163d d087 6b3d
000000d0: de78 13bd 7007 523b 072b 6bbd 6f02 a63d
000000e0: c091 df3b 5760 cf3c de5c 4739 19bf 2cbc
000000f0: 8b5c 6b3d 453f 203d 2347 dc3b d2b5 853d
00000100: e819 2c3d 537b e13c 00b3 303d 66a3 143d
00000110: 47b7 263d 5f13 ce3c 5690 70bc c728 933d
00000120: 2c8d ee3c c7bd 38bc 6f2f 003d a579 26bd
00000130: 27c8 16bc 2ce2 de3c 44e7 043c 763d a73c
00000140: 649d 593c 80c1 be3c 218c e33c 19ed 45bd
00000150: 735f 26bd c8b1 6db9 682c 8bbc 10e3 233d
00000160: ca73 863c 79d8 d9bc 7fa2 23bb 8530 953d
00000170: c5ac 81be f90b 9ebd deec 4bbd e2cc 383c
00000180: 4189 093d d7a2 8cbc cfb5 24bb 9002 343d
00000190: 3cd4 143e 816a 05be 789d 383c 0e14 76bd
000001a0: b5d1 c1bc 13f3 a63c cf32 f9bc a9c9 54bd
000001b0: ffcc 233e afde 01bd d12a e63c 7d8b 2a3d
000001c0: c7c4 943a 11ab 553c 043e 2dbd 1391 cb3b
000001d0: f705 f13d dd98 143e 02e0 323d 3892 bb3c
000001e0: 8762 073c 833b 02bd ea88 9cbb ff8b a2bc
000001f0: 3c3a 76bd 8d4b 03be ff31 273d 82e3 cdbc
00000200: 0792 773d ab40 bfbd 914f 253d 57e8 3ebd
00000210: 78be c5bc acac bcbd b96c 9bbc 8491 6b3c
00000220: ad11 893c e728 65bd a24a 13bc 58a4 e93c
00000230: 1304 43bc 541e c4bd 4545 79bd 2084 5d3c
00000240: 9d06 6dbb 5f2e b4bb 73e3 2cba 61aa 5e3c
00000250: 0bb8 c13d 40ff ab3d 2a5d b23c 089e 91bd
00000260: 1d48 dbbc 71a1 ff3c 8dae a13a 9424 d83c
00000270: 0d6f 73bc 7ace 3c3d 3fde 3bbb 2611 593c
00000280: 8220 f73c 9f29 613d e49c 323d 52a0 713d
00000290: 22f3 e5bd 969d 09be ecb7 5fbd 3e62 b8ba
000002a0: 47dc 8c3d de3e e2bc 6588 343c 9730 a53c
000002b0: 8619 5fbd 649a c5bd 3d80 68bd 47dd debc
000002c0: 6122 893d 2d67 1cbd 5755 793c 4577 ecbc
000002d0: e7a0 773d da77 2ebe 5d7b 4abd 68ae a8bc
000002e0: be72 3f3b 4402 3b3d b91e 233d e207 cebc
000002f0: e2f9 293c aebc 87bc a516 1c3d 55a0 193d
00000300: 897d 93bc 3013 83bd 32fd 8cba 69c7 1cbd
00000310: a027 13bb b24a 67bd 2bd5 213d d961 023c
00000320: f67d f93c a1e0 44bd f0df 82bc 53d7 03bc
00000330: 8bc2 4a3d b4c3 8cbd b1bf 2ebd 8287 c6bc
00000340: c211 043c 8950 41bd b4e0 233d 7ac8 81bd
00000350: db4d d03d 905b 283e 78b3 cf3b 4d53 0abd
00000360: d6d0 b83b c865 ddba 554d 32bb f1e1 6f3d
00000370: a86c a03d 1e5d 1b3b e0fb aabb 078a 01bd
00000380: a8d9 ed3b e2be f8bc 220c 323d 09d4 0f3c
00000390: b11f 7f3e e4c8 0fbd 4ef2 d9bb 5d3e 58ba
000003a0: 5121 bcbc b070 143c c159 07bd 3f43 8e3a
000003b0: bf95 a33e caed 393d b2f7 bd3c 6321 423b
000003c0: 6381 7cbd 473c 8d3d 5d59 02bd 4a72 00bd
000003d0: 96df 633c aedb 183d 162b 8d3c 2b3c dc3c
000003e0: 02f9 3fbc 0f22 0eba 1404 15bc 3752 02bd
000003f0: cd1c 033d 7752 973c 5cdd c33c 76ea 213d

fc1.bias f4 [256]
-0.053718854 0.047752388 -0.0043759155 -0.12354407 0.13222939 0.004888424 0.049071755 -0.04107226
0.14372674 -0.073757336 0.111073956 0.016026406 0.08461112 -0.020402076 -0.08990316 0.08217881
0.02622827 -0.1891552 0.11387396 0.08326713 0.17554744 0.088812865 -0.11143767 -0.062088314
0.15480518 -0.052736484 0.027244853 -0.13990387 0.039369036 0.08970451 0.04649884 0.07680047
0.008593043 0.041732803 0.13300969 -0.24230465 0.12582028 -0.18405546 0.025046699 0.17447914
-0.013396721 0.06222232 -0.11685376 -0.21727042 -0.019275283 -0.114226535 -0.14453718 0.1276868
0.12886946 0.1886897 0.081584886 0.18487449 0.04125855 -0.17522821 0.10638164 0.11218896
-0.18585354 0.005535074 0.030047428 -0.048121486 -0.06797607 0.080195166 0.10274508 0.19222452
0.05923832 -0.07860853 0.11695127 0.13378303 0.060476374 0.083633825 -0.21730559 0.0023305698
-0.17631464 0.17992125 -0.08973925 -0.08238643 0.08871955 0.13543382 0.121499285 -0.065420076
0.13198993 -0.14001389 -0.1308406 -0.13299109 0.14884846 0.095475316 0.21112059 0.02645845
0.11723919 -0.19747095 -0.110113956 0.14582528 0.054086644 0.043183874 0.10079873 -0.18333071
-0.17628238 0.092476405 -0.14239146 0.018922744 -0.17739922 -0.061479393 0.018447638 -0.10600984
-0.0115289865 0.04088824 -0.008836516 -0.015989613 0.026058264 0.021981517 -0.19367036 0.19289939
-0.033759933 -0.012066091 0.10050429 0.0184593 0.087507546 -0.02645305 -0.047213063 -0.09754083
-0.0466846 0.043022443 0.011298022 0.17218809 0.20858788 -0.09547529 -0.12673414 -0.19002911
-0.051138856 0.15800886 -0.18217981 -0.029257497 -0.057609472 -0.035492875 -0.04404039 0.14153092
-0.05038889 0.052637447 -0.07850662 -0.13749054 0.11642042 0.055084374 0.0048317746 0.011592706
-0.090885065 0.096669525 -0.05463052 -0.13873827 0.14165226 0.07189799 -0.20100375 -0.04546557
-0.1816012 0.1508265 -0.077185735 0.1624821 -0.05473235 0.18317756 0.1621467 0.0050482345
-0.21031748 0.06012482 -0.11481898 -0.11163064 -0.17981516 -0.19305085 -0.2593311 -0.012946227
0.113335274 0.036245454 0.0029739959 0.08419293 0.026139235 -0.019114664 0.04238082 -0.13048035
-0.12125437 -0.28111064 -0.013176175 -0.19541562 0.06358268 0.043698754 0.13297826 0.08515912
0.087241285 0.13527879 -0.0705232 -0.15139996 0.13935761 0.07249556 -0.22722866 0.1346559
-0.10329603 0.12467047 -0.04785872 0.015955755 0.009548516 -0.1095735 0.110996924 0.092651196
-0.07042343 0.15848239 0.044713654 -0.031612508 -0.18710892 0.0014817915 0.13770007 0.106972784
-0.010158879 0.12849243 -0.033722527 0.14804652 0.08555844 0.11595009 -0.02916415 -0.0008697513
0.05499097 -0.08800165 -0.08056426 0.14187822 0.1825827 -0.11647255 -0.1535493 -0.17770773
-0.042364404 0.18956535 -0.0260567 0.06043157 -0.020981349 -0.063447356 -0.15441978 -0.17999491
0.14039758 0.10119127 0.03663266 -0.14298421 -0.14136693 0.10561058 -0.041010156 -0.11848402
0.22585276 -0.0929882 -0.027396018 0.032670487 -0.061853908 0.06286335 0.073465005 -0.11497203
-0.1698227 0.10964579 -0.06612395 -0.057515077 -0.1190172 0.07187388 0.11725203 0.12096956
00000000: 4d08 5cbd 0298 433d d763 8fbb ac04 fdbd
00000010: 2467 073e 132f a03b 77ff 483d 633b 28bd
00000020: 1a2d 133e 160e 97bd be7a e33d cf49 833c
00000030: 9848 ad3d 4122 a7bc 261f b8bd 5d4d a83d
00000040: abdc d63c e7b1 41be c036 e93d f587 aa3d
00000050: b5c2 333e 85e3 b53d 6f39 e4bd 5150 7ebd
00000060: 4085 1e3e 3602 58bd 9930 df3c f642 0fbe
00000070: 6d41 213d 00b7 b73d 9175 3e3d 9149 9d3d
00000080: d6c9 0c3c 04f0 2a3d b133 083e b61e 78be
00000090: 08d7 003e 0979 3cbe bc2e cd3c a9aa 323e
000000a0: ec7d 5bbc d5dc 7e3d 0651 efbd 237c 5ebe
000000b0: 33e7 9dbc 9aef e9bd 8e01 14be 54c0 023e
000000c0: 5bf6 033e df37 413e fa15 a73d bd4f 3d3e
000000d0: bafe 283d 066f 33be 9ede d93d 53c3 e53d
000000e0: 6450 3ebe 915f b53b 0626 f63c 091b 45bd
000000f0: 0a37 8bbd 5d3d a43d 036c d23d 81d6 443e
00000100: e1a3 723d 82fd a0bd 2684 ef3d 6bfe 083e
00000110: 13b6 773d 3648 ab3d 5b85 5ebe 79bc 183b
00000120: d38b 34be 473d 383e 36c9 b7bd 37ba a8bd
00000130: 98b2 b53d 2aaf 0a3e 9ed4 f83d f6fa 85bd
00000140: 5e28 073e cd5f 0fbe 14fb 05be d12e 08be
00000150: bb6b 183e 9088 c33d ff2f 583e 64bf d83c
00000160: 1a1b f03d d335 4abe 6d83 e1bd 3953 153e
00000170: f589 5d3d 93e1 303d 916f ce3d 0cbb 3bbe
00000180: 5e83 34be 4564 bd3d 11cf 11be df03 9b3c
00000190: 24a8 35be d1d1 7bbd 801f 973c b01b d9bd
000001a0: 13e4 3cbc 6d7a 273d 09c7 10bc a6fc 82bc
000001b0: 2478 d53c 9512 b43c 8651 46be 6b87 453e
000001c0: db47 0abd dbb0 45bc 31d5 cd3d f537 973c
000001d0: 2837 b33d 11b4 d8bc 7c62 41bd 7dc3 c7bd
000001e0: 5a38 3fbd 4d38 303d 571b 393c 1352 303e
000001f0: 1098 553e 8d88 c3bd 98c6 01be fe96 42be
00000200: fa76 51bd 13cd 213e 588d 3abe 6bad efbc
00000210: e9f7 6bbd fa60 11bd b263 34bd 7bed 103e
00000220: 9564 4ebd 5d9a 573d 14c8 a0bd 52ca 0cbe
00000230: d46d ee3d 27a0 613d dd53 9e3b 55ef 3d3c
00000240: f321 babd acfa c53d 41c4 5fbd 6811 0ebe
00000250: 4a0d 113e 413f 933d edd3 4dbe 1b3a 3abd
00000260: aaf5 39be 4372 1a3e 8e13 9ebd b561 263e
00000270: 072f 60bd e692 3b3e c909 263e a96b a53b
00000280: 775d 57be 7145 763d 3726 ebbd 9b9e e4bd
00000290: 7721 38be 1faf 45be 0cc7 84be 691c 54bc
000002a0: 531c e83d 1d76 143d 5fe7 423b 586d ac3d
000002b0: f321 d63c 5b96 9cbc 8397 2d3d a49c 05be
000002c0: 3654 f8bd bced 8fbe e2e0 57bc 081b 48be
000002d0: a337 823d 77fd 323d 742b 083e e867 ae3d
000002e0: 8fab b23d 8686 0a3e 786e 90bd 9708 1bbe
000002f0: c3b3 0e3e 8d78 943d a1ae 68be 3ce3 093e
00000300: de8c d3bd 3b53 ff3d 8107 44bd a5b5 823c
00000310: 6171 1c3c 1268 e0bd 5b52 e33d e9bf bd3d
00000320: 293a 90bd 3549 223e aa25 373d 1e7c 01bd
00000330: 7b99 3fbe ac38 c23a 3f01 0d3e 8c14 db3d
00000340: 6d71 26bc 8593 033e a220 0abd 8299 173e
00000350: 4339 af3d 3e77 ed3d a8e9 eebc 0600 64ba
00000360: 363e 613d 363a b4bd e0fe a4bd 8648 113e
00000370: f6f6 3a3e 2989 eebd 073c 1dbe 04f9 35be
00000380: 4c86 2dbd 6b1d 423e dc74 d5bc 1887 773d
00000390: 14e1 abbc b0f0 81bd 3820 1ebe 9650 38be
000003a0: 62c4 0f3e 5e3d cf3d 210c 163d 746a 12be
000003b0: 7ec2 10be 5c4a d83d 44fa 27bd c0a7 f2bd
000003c0: f245 673e 9970 bebd 9d6d e0bc 7dd1 053d
000003d0: 865a 7dbd 80be 803d d274 963d 7576 ebbd
000003e0: 00e6 2dbe f98d e03d fe6b 87bd ee94 6bbd
000003f0: 4abf f3bd 9d32 933d d521 f03d e4be f73d

fc2.weight f4 [128, 258]
-0.0008276301 -0.098008655 -0.066472836 0.053723115 0.03372403 0.07335485 -0.040742066 0.05008335
0.02629616 0.0008742549 0.015856951 -0.04865058 -0.053492475 -0.0056117927 0.06696106 -0.022453422
0.043923177 -0.07569728 0.06910595 -0.065289035 0.07203258 -0.061563935 -0.0024016197 -0.012158655
-0.054642882 -0.22356413 -0.02114291 -0.032514982 0.0403485 0.040694702 -0.08381037 -0.013561677
-0.09288324 0.046619203 -0.0072160526 0.052467007 0.06366312 0.027777625 0.04319033 -0.10710416
0.043847837 0.10292702 -0.015169053 -0.09762519 -0.026582949 -0.04907154 -0.025147459 0.028321004
0.07310383 0.038125884 0.06391888 -0.033245552 -0.015191564 -0.06157546 0.028090615 0.07786957
0.01651545 -0.10042522 0.026743583 0.031398017 -0.033519465 -0.025093518 -0.11442086 0.05736429
0.041779913 -0.026295753 0.030849662 0.067012265 0.018937413 -0.020010523 -0.040275495 -0.05135203
0.0022944014 0.035048634 0.10126687 0.02616112 0.06696376 0.052891005 -0.061630867 0.061875753
-0.078758165 0.055579353 0.070809975 0.040568832 0.010276342 -0.0929219 -0.043516614 -0.020135252
0.07204525 -0.029479481 -0.051477592 0.13284518 -0.009064159 0.090841375 -0.037714854 -0.05550053
-0.109612994 0.017661119 0.024748154 0.03620431 0.094108224 -0.012007519 -0.06319892 0.06671775
-0.0146066295 -0.041860215 -0.025359703 -0.08226343 -0.012173941 0.029684037 0.014692647 -0.01918585
-0.038020916 0.029504629 -0.10408816 0.015394419 -0.050513886 -0.14248766 -0.09711624 -0.0064963377
-0.023362242 -0.005530058 0.07418487 -0.07045325 -0.0067191715 0.037594423 -0.022387005 0.022478975
0.027148139 -0.06489013 -0.03102439 -0.049476534 -0.010240661 -0.073439024 -0.08255362 -0.035063446
-0.0078038205 -0.018274216 -0.0017161586 0.108468585 0.027145306 0.054035693 -0.1034071 -0.040992014
-0.042511526 0.07196626 0.041389484 -0.099232 0.079331025 -0.02276197 -0.06917975 -0.07002416
0.04217365 -0.048876435 -0.035270393 0.076560594 0.04723522 -0.046728816 0.08295546 -0.058019545
0.030804122 0.028242296 0.016198339 -0.07909369 0.052790318 0.006453702 0.020589514 -0.03144321
-0.021410745 -0.009016983 0.037953664 0.040225662 -0.043666646 0.05686755 0.05056935 0.037601132
-0.020681484 -0.04770238 -0.09135348 0.021042002 -0.15297365 -0.15364711 -0.040268622 -0.115058765
0.004172623 -0.0775527 -0.027132506 -0.0058353255 -0.09061759 0.019490529 0.061877243 0.034270465
-0.0014812209 0.040262755 0.049349595 0.04703703 0.011512719 0.060552914 0.03411968 0.026507359
-0.0016935391 0.07499429 -0.033360593 -0.051661823 -0.00020983441 -0.013169393 -0.2424353 -0.016158538
-0.08112183 0.07361164 -0.079980016 -0.03640084 -0.036930695 0.0056069847 -0.07232219 -0.12953418
-0.011045089 -0.007688657 0.067408435 -0.044750597 0.049654752 -0.01723174 0.03095992 -0.0091053145
-0.015875123 -0.027056972 -0.055391192 0.11688187 -0.016062599 0.045811933 0.06861576 0.024012305
-0.011566413 -0.011717242 0.03965005 -0.078577735 0.04295464 -0.02971394 -0.006608241 -0.04519714
0.10483834 -0.07179457 -0.04086678 0.026100334 -0.124375984 -0.045719188 -0.017514765 -0.11017013
0.048781935 0.02978516 0.038939457 0.009406695 -0.0054391418 -0.047838733 -0.06458718 -0.026127711
00000000: 51f5 58ba c3b8 c8bd e922 88bd c50c 5c3d
00000010: 3522 0a3d 113b 963d 27e1 26bd 3324 4d3d
00000020: 0b6b d73c 412e 653a 70e6 813c d545 47bd
00000030: ed1a 5bbd 21e3 b7bb e122 893d 3df0 b7bc
00000040: cae8 333d 2d07 9bbd 6c87 8d3d 42b6 85bd
00000050: d185 933d 772a 7cbd 7e64 1dbb 1835 47bc
00000060: 37d1 5fbd ffed 64be e533 adbc 6e2e 05bd
00000070: 7844 253d 7daf 263d c5a4 abbd cc31 5ebc
00000080: 9139 bebd c7f3 3e3d a374 ecbb a5e7 563d
00000090: cf61 823d e78d e33c 58e8 303d 6d59 dbbd
000000a0: ca99 333d 67cb d23d 9f87 78bc b7ef c7bd
000000b0: 7cc4 d9bc 3dff 48bd 0b02 cebc 7301 e83c
000000c0: 76b7 953d e329 1c3d e7e7 823d 7d2c 08bd
000000d0: 0ae6 78bc 8d36 7cbd 4a1e e63c 157a 9f3d
000000e0: 694b 873c bdab cdbd 5c15 db3c 359b 003d
000000f0: b54b 09bd ec90 cdbc 7c55 eabd d1f6 6a3d
00000100: 6a21 2b3d 316a d7bc 6eb8 fc3c ba3d 893d
00000110: a222 9b3c 1ced a3bc ebf7 24bd 8256 52bd
00000120: ab5d 163b 288f 0f3d 0165 cf3d d84f d63c
00000130: 4c24 893d 3da4 583d a670 7cbd 6e71 7d3d
00000140: f64b a1bd 2da7 633d d204 913d 812b 263d
00000150: 1a5e 283c d64d bebd 7a3e 32bd aff2 a4bc
00000160: 768c 933d f47e f1bc 2bda 52bd 9108 083e
00000170: d781 14bc 0b0b ba3d e47a 1abd 8654 63bd
00000180: c77c e0bd 0dae 903c a4bc ca3c f84a 143d
00000190: d0bb c03d 2fbb 44bc 6f6e 81bd 51a3 883d
000001a0: a550 6fbc 9e75 2bbd 27bf cfbc bb79 a8bd
000001b0: 3675 47bc f02b f33c 6eb9 703c a52b 9dbc
000001c0: d2bb 1bbd b1b3 f13c 2c2c d5bd e038 7c3c
000001d0: a6e7 4ebd 49e8 11be e1e4 c6bd 3bdf d4bb
000001e0: 2c62 bfbc 7d35 b5bb 3dee 973d cb49 90bd
000001f0: 7f2c dcbb 9cfc 193d f464 b7bc d425 b83c
00000200: c665 de3c 1ee5 84bd dd26 febc e8a7 4abd
00000210: 72c8 27bc 3367 96bd df11 a9bd b09e 0fbd
00000220: 31b7 ffbb cfb3 95bc baf0 e0ba c724 de3d
00000230: d55f de3c 8854 5d3d 1ac7 d3bd 3ee7 27bd
00000240: 9120 2ebd 0c63 933d 0588 293d 263a cbbd
00000250: 4e78 a23d 5077 babc 1dae 8dbd d468 8fbd
00000260: 47be 2c3d a832 48bd b077 10bd cdcb 9c3d
00000270: b879 413d b766 3fbd 8de4 a93d e7a5 6dbd
00000280: ed58 fc3c 635c e73c 61b2 843c dffb a1bd
00000290: a93a 583d 9479 d33b 57ab a83c 98ca 00bd
000002a0: 9665 afbc f8bb 13bc 4d75 1b3d aac3 243d
000002b0: ccdb 32bd f3ed 683d cf21 4f3d a503 1a3d
000002c0: 376c a9bc 9263 43bd 8917 bbbd 4760 ac3c
000002d0: 20a5 1cbe ab55 1dbe b6f0 24bd eea3 ebbd
000002e0: 80ba 883b f3d3 9ebd fd44 debc 4236 bfbb
000002f0: b795 b9bd 9aaa 9f3c fe72 7d3d 305f 0c3d
00000300: 8725 c2ba 8fea 243d cd22 4a3d e7a9 403d
00000310: d89f 3c3c 5506 783d 14c1 0b3d f625 d93c
00000320: bef9 ddba 9b96 993d 1ea5 08bd 599b 53bd
00000330: ff06 5cb9 70c4 57bc f640 78be e95e 84bc
00000340: 3423 a6bd b3c1 963d 90cc a3bd 0c19 15bd
00000350: a444 17bd ccba b73b a81d 94bd 9ca4 04be
00000360: 76f6 34bc 21f1 fbbb 6f0d 8a3d 674c 37bd
00000370: c862 4b3d 9429 8dbc a89f fd3c 752e 15bc
00000380: 8c0c 82bc 95a6 ddbc e0e1 62bd c35f ef3d
00000390: b695 83bc 4ba5 3b3d 6b86 8c3d 74b5 c43c
000003a0: 0d81 3dbc adf9 3fbc 1768 223d 5ded a0bd
000003b0: 34f1 2f3d a66a f3bc f189 d8bb a320 39bd
000003c0: 7cb5 d63d 0809 93bd ed63 27bd 5ed0 d53c
000003d0: d6b8 febd 0b44 3bbd 207b 8fbc e1a0 e1bd
000003e0: 91cf 473d 0200 f43c fb7e 1f3d 8a1e 1a3c
000003f0: d43a b2bb 8cf2 43bd 4946 84bd c809 d6bc

fc2.bias f4 [128]
0.018077895 -0.006097934 -0.00014867556 -0.06644443 0.069603175 -0.046749875 -0.041823473 -0.06802389
-0.03649345 0.0567934 -0.019993646 -0.046308488 -0.016811991 0.0075498805 -0.0077501615 -0.020675873
0.030992733 0.0030860107 0.0021331215 0.006045224 0.011097673 -0.04168964 -0.00060836546 -0.06985013
0.0051402953 -0.012288228 -0.022857105 0.048673626 -0.045465507 -0.0011011863 -0.014500999 -0.046969153
0.06769834 -0.09155794 -0.0010254782 0.062909335 -0.02777081 -0.014070752 -0.034952696 -0.06586079
-0.04175342 -0.09296453 -0.005149357 0.049369436 0.028034763 0.05234047 0.018513579 -0.047716323
-0.04381877 0.023108242 -0.040949702 -0.029806627 0.04072446 0.016410524 0.028529914 0.029095583
-0.041913785 0.004826209 -0.008658293 -0.022386905 0.05977634 -0.01449708 -0.029903175 -0.029860241
-0.05364191 0.02877823 0.008595535 0.05497636 -0.051883794 0.0065740487 -0.06193444 -0.040667944
0.0004191465 -0.13277394 0.08712854 0.025759272 -0.027728064 -0.015522526 -0.08404518 0.02389977
0.021170057 -0.06274267 -0.09912549 -0.06391303 0.0040029907 -0.05981783 -0.007954732 0.004910082
0.026486145 0.076699 -0.032472555 0.008195023 0.016929556 0.04693964 -0.005405833 -0.016077355
0.03570334 -0.06754632 -0.0920847 0.012500598 -0.030395418 0.009176207 -0.041022245 -0.033339612
-0.0820311 -0.041715894 -0.00070976984 0.015421992 0.00040560905 -0.014896173 0.07426615 0.00073982944
-0.028211817 -0.058635976 0.010027448 -0.03400286 0.0006522653 0.030727498 0.007313618 -0.0045774635
0.017362101 -0.053737562 0.014591774 0.039458252 -0.06650838 -0.03349386 -0.048759174 -0.050154436
00000000: 1818 943c 2ed1 c7bb cbe5 1bb9 0414 88bd
00000010: 1c8c 8e3d cc7c 3fbd 174f 2bbd 1c50 8bbd
00000020: 287a 15bd 32a0 683d b7c9 a3bc f8ad 3dbd
00000030: 4db9 89bc fd64 f73b 11f5 fdbb 7360 a9bc
00000040: 79e4 fd3c ab3e 4a3b d7cb 0b3b 0417 c63b
00000050: 04d3 353c c2c2 2abd b77a 1fba 960d 8fbd
00000060: ec6f a83b 9054 49bc d33e bbbc ff5d 473d
00000070: 0a3a 3abd ae55 90ba 9995 6dbc ba62 40bd
00000080: 6da5 8a3d bb82 bbbd 5769 86ba 9cd6 803d
00000090: 9c7f e3bc 0389 66bc 8f2a 0fbd 06e2 86bd
000000a0: a205 2bbd 3064 bebd f0bb a8bb 9b37 4a3d
000000b0: 29a9 e53c f662 563d caa9 973c 3172 43bd
000000c0: 507b 33bd 7f4d bd3c e0ba 27bd 072d f4bc
000000d0: b1ce 263d 5d6f 863c 91b7 e93c dc59 ee3c
000000e0: caad 2bbd 2d25 9e3b 83db 0dbc be64 b7bc
000000f0: 09d8 743d 2985 6dbc 81f7 f4bc 779d f4bc
00000100: 9fb7 5bbd 53c0 eb3c 49d4 0c3c e42e 613d
00000110: 1a84 54bd 1e6b d73b f8ae 7dbd 6e93 26bd
00000120: e4c0 db39 e4f5 07be 7370 b23d 1c05 d33c
00000130: f725 e3bc 3152 7ebc e11f acbd 73c9 c33c
00000140: d46c ad3c 3b7f 80bd 4e02 cbbd d6e4 82bd
00000150: 852b 833b 8a03 75bd 9054 02bc c1e4 a03b
00000160: 79f9 d83c 5e14 9d3d f101 05bd 6b44 063c
00000170: daaf 8a3c c843 403d 6a23 b1bb a8b4 83bc
00000180: aa3d 123d ba55 8abd e796 bcbd 4fcf 4c3c
00000190: d0ff f8bc cd57 163c f106 28bd 1e8f 08bd
000001a0: ecff a7bd 49de 2abd d90f 3aba 86ac 7c3c
000001b0: eda7 d439 140f 74bc da18 983d 1df1 413a
000001c0: 781c e7bc 472c 70bd 2a4a 243c 9546 0bbd
000001d0: c9fc 2a3a 3cb8 fb3c 13a7 ef3b 8cfe 95bb
000001e0: f73a 8e3c eb1b 5cbd 5612 6f3c fa9e 213d
000001f0: 8c35 88bd dc30 09bd b3b7 47bd bd6e 4dbd

fc3.weight f4 [1, 128]
0.0029202767 0.008959121 -0.0242232 -0.03478625 0.015445216 -0.011068928 -0.0020108612 -0.013409484
-0.011023071 0.016771624 -0.019523233 -0.12892279 -0.037509277 -0.027824821 -0.022572301 -0.040145397
-0.01532369 0.0045237998 0.008267592 -0.15031461 -0.040907428 0.0017968371 0.03772446 -0.019657975
0.039838646 -0.0049430844 0.021263875 0.022436421 0.023709342 -0.016817523 -0.0120573705 -0.015334718
0.007994349 -0.011729905 0.056753267 0.021947132 -0.0236662 -0.041600853 0.01216952 -0.055625767
0.005055401 -0.1062763 0.022056585 -0.034888986 0.023171037 0.02052521 -0.0053480407 0.0075891484
0.009565042 -0.038137514 0.038432587 -0.038199194 0.01726457 0.004853936 0.021290302 0.0074040806
-0.04506777 -0.014492534 -0.015394787 -0.021985756 -0.015712203 0.029195668 -0.008265695 -0.045273233
-0.03327336 0.018368077 0.06239435 0.035904936 -0.011541426 0.0428421 -0.0077058715 0.019215092
0.01482771 -0.038692128 0.030678237 -0.0112882955 0.011536034 -0.009818714 -0.012786506 -0.054376155
0.029886266 -0.033514015 -0.032121405 -0.01531039 0.006047261 -0.023454014 0.030731514 -0.025447935
0.042068772 0.009639031 0.016855031 0.0076598222 0.032596644 0.026719568 -0.039597362 0.0065203905
-0.025416244 -0.0061373175 -0.029982429 -0.012199046 -0.020692145 0.012519802 -0.0361221 0.04216135
-0.03169841 -0.000922977 0.025265688 -0.07866004 -0.059571914 0.004981033 0.02284819 -0.015668765
0.013039542 0.0009265411 0.0038002508 0.03351458 0.013690225 0.074493386 -0.06625384 -0.06842178
0.010397158 -0.053549796 -0.022978473 -0.07807203 -0.03581452 -0.044708446 -0.00019748061 0.019817792
00000000: 1d62 3f3b 47c9 123c bb6f c6bc 077c 0ebd
00000010: ee0d 7d3c 735a 35bc a7c8 03bb 74b3 5bbc
00000020: 1c9a 34bc a564 893c 30ef 9fbc 5604 04be
00000030: 54a3 19bd e1f0 e3bc 8ce9 b8bc 806f 24bd
00000040: 3710 7bbc 623c 943b cb74 073c 13ec 19be
00000050: 8c8e 27bd d983 eb3a f784 1a3d c309 a1bc
00000060: d92d 233d 99f9 a1bb 9431 ae3c 96cc b73c
00000070: 183a c23c e7c4 89bc 478c 45bc 783e 7bbc
00000080: bbfa 023c ca2e 40bc 1d76 683d 79ca b33c
00000090: 9edf c1bc a865 2abd ab62 473c d8d7 63bd
000000a0: c7a7 a53b 64a7 d9bd 03b0 b43c c1e7 0ebd
000000b0: 30d1 bd3c 7c24 a83c 9e3e afbb 64ae f83b
000000c0: b2b6 1c3c 1536 1cbd 7d6b 1d3d c276 1cbd
000000d0: 6d6e 8d3c c40d 9f3b 0069 ae3c ee9d f23b
000000e0: fb98 38bd 1872 6dbc 6b3a 7cbc 791b b4bc
000000f0: e1b6 80bc c12b ef3c d66c 07bc 6d70 39bd
00000100: a649 08bd a678 963c 3891 7f3d 0e11 133d
00000110: 4018 3dbc 337b 2f3d 8981 fcbb f868 9d3c
00000120: ecef 723c a37b 1ebd ed50 fb3c 8bf2 38bc
00000130: a201 3d3c acde 20bc 7e7e 51bc 88b9 5ebd
00000140: 0bd4 f43c fe45 09bd bc91 03bd 6ed8 7abc
00000150: 1a28 c63b a222 c0bc a8c0 fb3c 3078 d0bc
00000160: 4e50 2c3d 07ed 1d3c 9013 8a3c 3fff fa3b
00000170: 0f84 053d ffe2 da3c d830 22bd 00a9 d53b
00000180: ba35 d0bc 8d1b c9bb b69d f5bc 82de 47bc
00000190: 9382 a9bc db1f 4d3c c4f4 13bd 61b1 2c3d
000001a0: 31d6 01bd f0f3 71ba fdf9 ce3c 8418 a1bd
000001b0: ae01 74bd ef37 a33b 212c bb3c c85b 80bc
000001c0: cea3 553c 1fe3 723a a10d 793b 9646 093d
000001d0: f74c 603c fd8f 983d 18b0 87bd b820 8cbd
000001e0: d758 2a3c 0857 5bbd 5a3d bcbc 3ae4 9fbd
000001f0: 3fb2 12bd 3420 37bd cc12 4fb9 ec58 a23c
