checkpoint_actor.pth (torch_old, 159294 bytes, 6 tensors)

fc1.weight f4 [256, 24]
0	0xbda25f6d	-0.07928357
1	0x3d663218	0.056200117
2	0xbd950193	-0.07275691
3	0xbdad85d7	-0.084727935
4	0x3d3e7ee1	0.04650772
5	0xbe13e3ae	-0.14442322
6	0xbd0b6031	-0.034027282
7	0xbdcec0d2	-0.10095371
8	0xbdebf776	-0.11521809
9	0x3c6d5546	0.014485663
10	0x3d00c46f	0.031437334
11	0x3ced6561	0.028979005
12	0x3d4ac7ae	0.049506836
13	0xbe0f3501	-0.13985063
14	0x3cd78cc8	0.026312247
15	0x3d73828e	0.05945068
16	0x3c13d368	0.009022571
17	0xbcdde54e	-0.02708688
18	0x3bab672d	0.0052308054
19	0x3d44e181	0.04806662
20	0x3d9f0724	0.07765034
21	0xbd986078	-0.07440275
22	0xbc1f1af1	-0.009711013
23	0xbd0b7480	-0.03404665
24	0x3d90143b	0.07035109
25	0x3de49e95	0.111630596
26	0x3cfd40a9	0.030914621
27	0x3d68329b	0.056688886
28	0xbe48b694	-0.19600898
29	0x3cd4998c	0.025952123
30	0xbd4f89f2	-0.050668664
31	0x3c5018cc	0.012701225
32	0x3e2b5538	0.16731727
33	0x3e36843d	0.17823882
34	0x3bef52ac	0.0073035564
35	0xbd23f780	-0.040030956
36	0xbd860f1c	-0.06545851
37	0xbd806da1	-0.0627091
38	0x3d9010e7	0.07034474
39	0xbd03a5e0	-0.032140613
40	0xbd7447eb	-0.0596389
41	0xbd3ab9b6	-0.045587264
42	0xbc3b0a82	-0.0114160795
43	0xbc648661	-0.013948054
44	0x3d3a8a4e	0.045542054
45	0x3e51d79f	0.20492409
46	0x3b575ddb	0.0032862339
47	0x3d4a06ae	0.049322776
48	0xbd9fe7eb	-0.07807907
49	0x3d5c62dd	0.05380522
50	0x3de30d7c	0.11086556
51	0xbd0ca4d1	-0.03433687
52	0xbe30fa0e	-0.17282888
53	0xbc39179c	-0.011297133
54	0x3db3a595	0.08771817
55	0xbcda796e	-0.02666923
56	0xbd62d26c	-0.055376455
57	0x3ddb2388	0.107001364
58	0xbd2651df	-0.040605422
59	0xbe1a6438	-0.15077293
60	0xbd6025d7	-0.054723587
61	0xbdc87ecd	-0.0978981
62	0xbd63b900	-0.05559635
63	0xbd4f3d77	-0.050595727
64	0x3d1d7341	0.038439993
65	0x3ddcae0b	0.107753836
66	0xbcbcf89c	-0.023067765
67	0x3c9eb4b4	0.019373275
68	0x3dc6d839	0.0970921
69	0xbd7f8e5a	-0.062391616
70	0x3d1f311b	0.03886519
71	0xbd596b9f	-0.05308115
72	0xbdb92523	-0.090402864
73	0xbd16f1a7	-0.03685155
74	0xbc0d02c7	-0.008606619
75	0x3ce68025	0.028137276
76	0xbde1fc85	-0.110344924
77	0xbd844c39	-0.06459851
78	0x3ca8a83c	0.020588033
79	0x3cf7cee1	0.030250015
80	0xbbd9ada9	-0.0066430164
81	0x3dab0120	0.08349824
82	0xbd92e670	-0.07172859
83	0x3d6d6157	0.05795416
84	0xbcc89328	-0.024484232
85	0xbe716e96	-0.23577341
86	0x3cb4f9ca	0.022091765
87	0x3d6052a0	0.054766297
88	0xbd0b9241	-0.034075025
89	0x3917b631	0.00014468354
90	0xbbaad153	-0.0052129417
91	0xbd1833bd	-0.037158716
92	0x3c8e3382	0.017358545
93	0xbe5495f5	-0.20760329
94	0xbc70e1be	-0.014702259
95	0x3c797b2b	0.015227119
96	0x3d449fab	0.048003834
97	0xbd15d574	-0.036580518
98	0xbd759e0b	-0.059965175
99	0xba2467ba	-0.000627156
100	0xbd98269a	-0.07429238
101	0x3db25ca8	0.08709079
102	0xbdd73b38	-0.10509342
103	0x3d79e616	0.061010443
104	0xbd4e010b	-0.050293963
105	0xbdee78df	-0.11644148
106	0x3bb11414	0.005404005
107	0xbd9df776	-0.07713215
108	0x3d800823	0.06251552
109	0x3dd3069a	0.103039935
110	0x3d0b66b0	0.034033477
111	0xbe03bd4c	-0.1286518
112	0x3d8001fa	0.06250377
113	0xbcec70bd	-0.028862352
114	0xbcce1a4d	-0.025159026
115	0x3e612399	0.21986236
116	0x3dfe4153	0.12414803
117	0x3d0acff4	0.033889726
118	0x3d7fbcf6	0.062436067
119	0x3e24c698	0.16091383
120	0x3e264b2d	0.16239615
121	0x3da302e8	0.07959539
122	0x3d9bdcfa	0.07610507
123	0x3cd893b4	0.026437618
124	0x3cdd290b	0.02699711
125	0x3ccda2a2	0.025101963
126	0x3d367906	0.04454901
127	0x3d852233	0.065006636
128	0x3e4a18d3	0.19736032
129	0x3ba065e0	0.004894957
130	0x3bc7a42d	0.0060925693
131	0xbd2ee05e	-0.042694442
132	0xbd291851	-0.041282956
133	0xbdf9536e	-0.12174116
134	0x3ce7db02	0.028302673
135	0xbca40fb0	-0.020027012
136	0x3d5ce480	0.053928852
137	0x3d912190	0.0708648
138	0xbd97af84	-0.07406524
139	0xbc8bf9d9	-0.01708691
140	0x3ce480a5	0.027893374
141	0xbe2d619d	-0.16931768
142	0xbd09b0d4	-0.033615902
143	0x3da8dfca	0.082458094
144	0x3d994118	0.07483119
145	0x3e0519c1	0.12998106
146	0x3cb51865	0.022106359
147	0xbd8d3585	-0.06894974
148	0xbe2099ae	-0.15683624
149	0xbe048ca3	-0.12944274
150	0x3c2c9013	0.010532397
151	0xbc28bb1b	-0.010298516
152	0xbd7eb747	-0.062186506
153	0xbc1bb30c	-0.009503137
154	0xbcb6c213	-0.022309339
155	0xbdb66a55	-0.08907
156	0xbd7fdb7b	-0.062465172
157	0x3dbdac66	0.09261398
158	0xbc9eb08c	-0.019371293
159	0xbd3349cf	-0.04377156
160	0x3d10466b	0.035223406
161	0x3c25ed7e	0.010127423
162	0x3d61da67	0.055139925
163	0xbe377261	-0.17914726
164	0x3d3bf7ab	0.04589049
165	0x3de11ba2	0.10991599
166	0x3cbdb219	0.023156213
167	0xbd981668	-0.07426149
168	0xbcc73095	-0.024315158
169	0x3e185059	0.148744
170	0x3d766dd7	0.060163345
171	0xbd3fedca	-0.046857633
172	0x3e613e91	0.21996523
173	0x3e075b3a	0.13218394
174	0xbc9c6c29	-0.019094544
175	0x3c8d7e5f	0.017272172
176	0x3c35e32b	0.011101524
177	0x3e2ded4d	0.16985054
178	0xbc417070	-0.011806592
179	0xbd2f6695	-0.04282244
180	0x3d539509	0.051655803
181	0xbd311a8f	-0.04323822
182	0x3c407e2c	0.011748832
183	0xbd4f65bd	-0.050634135
184	0xbdb0845e	-0.08618997
185	0x3de4ea0f	0.11177456
186	0xbd19f87c	-0.03759049
187	0x3d77d6c2	0.060507543
188	0xbcfca6c3	-0.030841237
189	0x3e1928de	0.14956996
190	0x3d1ca398	0.038241953
191	0x3cacf6d4	0.02111379
192	0xbdc217fb	-0.0947723
193	0x3c901c92	0.017591748
194	0xbd6407c0	-0.055671453
195	0x3c50b3ed	0.01273821
196	0x3dce6ef5	0.10079757
197	0xbd9ea2da	-0.07745905
198	0xbca4b0d7	-0.020103855
199	0x3c37f6b1	0.011228249
200	0xbdadcb1b	-0.08486005
201	0x3b7ea391	0.0038854817
202	0xbc989c28	-0.018629149
203	0xbc87ba4a	-0.016568322
204	0x3dc4f1c8	0.096164286
205	0xbe29babb	-0.16575138
206	0x3d2dcb00	0.042429924
207	0xbc91bb43	-0.017789489
208	0xbcc3b4b5	-0.023889879
209	0x3ced1a94	0.028943338
210	0xbdd8b089	-0.105805464
211	0x3ddf1f55	0.10894648
212	0x3d9ffda8	0.07812053
213	0xbe9795dc	-0.2960652
214	0xbc8f21fd	-0.017472262
215	0x3d503d3f	0.05083966
216	0xbdc70121	-0.09717012
217	0x3c012a6a	0.007883647
218	0x3d717e2d	0.05895822
219	0xbd2b084b	-0.041755956
220	0xbc7c33aa	-0.015393177
221	0xbdbd0b60	-0.09230685
222	0xbb2afe3c	-0.0026091477
223	0x3d927f91	0.071532376
224	0xbd71ca99	-0.059031103
225	0x3d83ff94	0.06445232
226	0x3d9d5a6c	0.07683262
227	0x3c932213	0.017960584
228	0xbd801726	-0.06254415
229	0xbb304b72	-0.0026900438
230	0xbcdec3ea	-0.027193028
231	0xbc36805b	-0.011139001
232	0xbd4b79c0	-0.049676657
233	0xbd3f6a87	-0.04673245
234	0xbd2e5d25	-0.0425693
235	0x3db09d08	0.08623701
236	0x3de3dde0	0.11126304
237	0x3d8204a7	0.063485436
238	0x3d50f80f	0.051017817
239	0x3d991534	0.07474747
240	0xbd97c281	-0.074101456
241	0xbe261e7e	-0.1622257
242	0xb9ea2faf	-0.00044667485
243	0x3d5c9654	0.0538543
244	0x3da4896f	0.08034026
245	0x3e0d0495	0.13771279
246	0x3c85054f	0.016237883
247	0xbc357cc9	-0.011077114
248	0x3d2f0942	0.04273344
249	0xbc8541d5	-0.016266743
250	0xbcc7c8b0	-0.024387687
251	0xbe128c3c	-0.14311308
252	0xbdce879a	-0.10084458
253	0x3d78c125	0.060731072
254	0xbcf3203e	-0.02967846
255	0xbda5aa6e	-0.080891475

fc1.bias f4 [256]
0	0x3c62a5a0	0.013833433
1	0x3df1cf9b	0.11807176
2	0x3cd3cb2b	0.025853714
3	0xbd0d6205	-0.034517307
4	0x3defafb7	0.11703437
5	0xbd786436	-0.060642444
6	0x3df2967b	0.11845108
7	0xbc81c413	-0.015840566
8	0x3e1de2d9	0.15418567
9	0xbbf88ddf	-0.0075852717
10	0x3dd9b5ae	0.10630356
11	0xbc55ebae	-0.013056679
12	0x3e389348	0.18024933
13	0xbca2a726	-0.019855093
14	0xbd90e493	-0.07074847
15	0x3db57a5d	0.088612296
16	0xbce81078	-0.028328165
17	0xbe4b0a8e	-0.19828245
18	0x3d736e3d	0.059431303
19	0x3daef9ef	0.08543765
20	0x3e5db750	0.2165196
21	0x3d45c49d	0.04828321
22	0xbdac6780	-0.084181786
23	0x3bcffa18	0.006346952
24	0x3e65103a	0.22369471
25	0xbd1b3065	-0.03788795
26	0x3db4e5e2	0.08832909
27	0xbdd605ac	-0.104503006
28	0x3dab2867	0.083573155
29	0x3e152486	0.14564714
30	0x3d8407c6	0.06446795
31	0x3d959333	0.07303467
32	0x3d8a7149	0.06759889
33	0xbc7dd764	-0.015493248
34	0x3de1b1ae	0.11020218
35	0xbe3696ee	-0.17831013
36	0x3de2d979	0.11076636
37	0xbe1fc87b	-0.15603821
38	0x3d9098c8	0.07060391
39	0x3e91d9cf	0.28486487
40	0x3ca25255	0.01981465
41	0x3d473bff	0.0486412
42	0xbe274487	-0.16334735
43	0xbe4d8381	-0.20069696
44	0x3d090e2f	0.033460792
45	0xbdc81e5f	-0.09771418
46	0xbe3248fd	-0.17410655
47	0x3e399f33	0.18127136
48	0x3dcd355d	0.10019944
49	0x3e63171c	0.22176784
50	0x3d1e8ae7	0.038706686
51	0x3e0eb7e4	0.13937336
52	0x3c0cfeae	0.008605642
53	0xbdec1141	-0.115267284
54	0x3e06593b	0.13119976
55	0x3e504fbe	0.20342919
56	0xbe372fdc	-0.1788935
57	0xbd266d11	-0.040631358
58	0x3ce28f6b	0.027656278
59	0x3b399d48	0.0028322507
60	0xbd6b5f51	-0.057463948
61	0x3dc8a032	0.0979618
62	0x3df13ad1	0.117787965
63	0x3e111a05	0.14170082
64	0x3dff7a68	0.12474519
65	0xbdc8f70c	-0.098127455
66	0x3e51b1a5	0.20477922
67	0x3dc1df6f	0.09466445
68	0x3dfa8c21	0.12233759
69	0x3e087c63	0.133287
70	0xbe47b687	-0.19503222
71	0x3c205c29	0.009787598
72	0xbd8c0ddc	-0.06838581
73	0x3e2d9af9	0.16953649
74	0xbe43e0a1	-0.19128658
75	0xbd058ccd	-0.03260498
76	0x3e1a1383	0.15046506
77	0x3e0c1186	0.1367856
78	0x3e102847	0.14077865
79	0xbe0199a0	-0.1265626
80	0x3e20a39a	0.15687409
81	0xbe2548bd	-0.16141029
82	0xbdac8086	-0.084229514
83	0xbda0fe2d	-0.0786098
84	0x3e0f43fe	0.1399078
85	0x3d08abe6	0.03336706
86	0x3e052285	0.1300145
87	0x3d99fe66	0.07519226
88	0x3e5b33d6	0.21406493
89	0xbe6d2e49	-0.23162188
90	0xbe191f98	-0.14953458
91	0x3e2c961e	0.1685414
92	0x3dadb8d9	0.084825225
93	0x3db7e5fc	0.08979413
94	0x3df8eb46	0.1215425
95	0xbe1b41fc	-0.1516189
96	0xbe33930c	-0.17536563
97	0x3df25777	0.11833089
98	0xbdc3a78c	-0.095534414
99	0x3d44061f	0.0478574
100	0xbdeb9ccf	-0.11504518
101	0xbd2234d8	-0.039601177
102	0xbabc2289	-0.0014353554
103	0xbdcfe4e1	-0.10151077
104	0xbd0fc1b8	-0.035096854
105	0x3d386992	0.045022555
106	0x3d4fddbb	0.050748568
107	0x3cb7248c	0.022356294
108	0x3b8f823a	0.004379538
109	0x3d9c0c22	0.07619502
110	0xbe02f419	-0.12788428
111	0x3e00c07c	0.12573427
112	0xbdbec529	-0.09314949
113	0xbc9997ca	-0.018749136
114	0x3d8e1c14	0.06938949
115	0x3dfe3537	0.12412494
116	0x3e1868af	0.14883684
117	0xbcd5b11b	-0.026085427
118	0xbbf6545f	-0.007517382
119	0xbd336a67	-0.043802645
120	0xbbf33e9a	-0.007423234
121	0x3d89e9c8	0.06734043
122	0x3db21325	0.08695058
123	0x3e81b21e	0.25331205
124	0x3e46a6d5	0.19399579
125	0xbe1b9919	-0.15195121
126	0xbd8bad49	-0.06820161
127	0xbe5284f6	-0.20558533
128	0xbd1b17b5	-0.037864406
129	0x3e2fb7d5	0.1715997
130	0xbe211cd1	-0.15733649
131	0x3ce50244	0.027955182
132	0xbd3690ca	-0.044571675
133	0xbd8ddd87	-0.069270186
134	0xbd1b15bd	-0.037862528
135	0x3e44f6fd	0.19234844
136	0xbd426ab9	-0.04746506
137	0xbc6decd0	-0.0145217925
138	0xbd9883cb	-0.074470125
139	0xbddbd980	-0.10734844
140	0x3dcdfa67	0.10057526
141	0x3db5e076	0.08880703
142	0xbd45b846	-0.04827144
143	0x3d7bdde8	0.061490923
144	0xbcdac15e	-0.026703533
145	0x3e293316	0.16523394
146	0xbba5ae42	-0.0050561735
147	0xbdef2fad	-0.11679015
148	0x3e16faaa	0.14744058
149	0xbc836b82	-0.016042475
150	0xbe84c540	-0.2593174
151	0xbce3f40d	-0.027826333
152	0xbd92f411	-0.07175458
153	0x3e16a645	0.14711864
154	0xbd446e49	-0.04795674
155	0x3e02da97	0.12778698
156	0x3cd31b3e	0.025769826
157	0x3e4b0612	0.19826534
158	0x3e72abd9	0.23698367
159	0x3d01fff3	0.031738233
160	0xbe2416bf	-0.16024302
161	0x3d856e41	0.0651517
162	0xbe1a25af	-0.15053438
163	0xbd5f76ed	-0.054556776
164	0xbe2d1eeb	-0.16906326
165	0xbe3d8da4	-0.18511063
166	0xbe5da2e3	-0.21644168
167	0xbddb39ed	-0.10704408
168	0x3df5afbb	0.119964086
169	0x3ca6acbc	0.020346038
170	0x3d41050d	0.047123957
171	0x3e3aa319	0.1822628
172	0x3d366296	0.044527613
173	0x3d09e8ee	0.033669405
174	0x3d77f983	0.060540687
175	0xbdaaba97	-0.083363704
176	0xbe34420b	-0.17603318
177	0xbe4cd8f7	-0.2000464
178	0xbd6d3aae	-0.05791729
179	0xbdec7612	-0.115459576
180	0x3d7f8107	0.06237891
181	0xbce7d9ff	-0.02830219
182	0x3e67e2a3	0.22645049
183	0x3e0b6e55	0.13616307
184	0x3da22f6b	0.079192005
185	0x3d65dcf9	0.05611894
186	0xbe07c2c1	-0.13257886
187	0xbdf7b0de	-0.120942816
188	0x3d774b1b	0.06037436
189	0x3d9ac3f1	0.07556904
190	0xbe2d1104	-0.16901022
191	0x3e5af29a	0.21381608
192	0xbd99c192	-0.07507624
193	0x3e371814	0.17880279
194	0xbcbfa5f3	-0.02339456
195	0xbd6ea935	-0.058266837
196	0xbd80c273	-0.06287088
197	0xbe0c0d0a	-0.13676849
198	0x3e01cc59	0.12675609
199	0x3d91bb99	0.071158595
200	0xbdb7d8a4	-0.08976868
201	0x3e15b1d0	0.14618611
202	0xbd625e3c	-0.05526565
203	0xbb850c8d	-0.004060334
204	0xbe36fdad	-0.17870207
205	0x3dd65d6d	0.10467038
206	0x3e4ba0d5	0.19885571
207	0x3d3b9222	0.04579366
208	0x3cccbb12	0.024991546
209	0x3df48cb3	0.11940899
210	0x3beadb94	0.007167289
211	0x3ddd5e8b	0.10809048
212	0x3dec0eec	0.115262836
213	0x3e35a494	0.17738563
214	0xbd85cc1c	-0.065330714
215	0x3ccaed74	0.02477143
216	0x3df410e7	0.11917286
217	0xbe167546	-0.14693174
218	0xbd98d974	-0.07463351
219	0x3e18f7a2	0.14938214
220	0x3e4528a6	0.19253787
221	0xbdb0bea4	-0.08630112
222	0xbe01dc95	-0.12681802
223	0xbe09ddf7	-0.13463579
224	0xbd68cb51	-0.056834523
225	0x3e1266d0	0.14297032
226	0xbd4207dc	-0.047370777
227	0x3d99ad45	0.07503752
228	0x3c9a7efe	0.018859383
229	0xbcd1d1bd	-0.025612706
230	0xbdf77466	-0.12082748
231	0xbe10be8b	-0.14135186
232	0x3e061628	0.1309439
233	0x3e216911	0.15762736
234	0xbc750a13	-0.014956015
235	0xbe2c69d8	-0.16837251
236	0xbe0c2b71	-0.13688447
237	0x3d249aee	0.040186815
238	0xbd4aa4c9	-0.049473558
239	0xbe3d276d	-0.18472071
240	0x3e84a3ac	0.25906122
241	0xbdab3ab1	-0.08360804
242	0xbdabbca9	-0.083855934
243	0x3dba003f	0.09082078
244	0xbc7700c9	-0.015075871
245	0x3d8d22ce	0.06891404
246	0x3d97e770	0.0741719
247	0xbe0c0b85	-0.1367627
248	0xbe489f54	-0.19592029
249	0x3d9f9e1f	0.07793831
250	0xbd025c80	-0.031826496
251	0xbd664182	-0.056214817
252	0xbdaa92b4	-0.08328763
253	0x3df06ee7	0.11739903
254	0x3e1e37c7	0.15450965
255	0x3d727fb9	0.059203837

fc2.weight f4 [128, 256]
0	0x3da6956f	0.08133971
1	0x3d37c72a	0.044867672
2	0xbc3ceec6	-0.011531537
3	0xbd1c727d	-0.038195122
4	0xbca19188	-0.019722715
5	0xbd145928	-0.03621784
6	0x3dcaee1f	0.09908699
7	0x3d078576	0.033086263
8	0xbd94c7f3	-0.072647
9	0x3c659a3c	0.014013823
10	0x3c400c82	0.011721732
11	0xbe38fa64	-0.18064266
12	0x3d819fd9	0.06329317
13	0x3c288c20	0.010287315
14	0x3d7baaab	0.06144206
15	0xbd64365d	-0.055715907
16	0x3a8be735	0.0010673763
17	0x3cbcfdc5	0.023070225
18	0xbdb72ade	-0.08943723
19	0x3e1f1045	0.1553355
20	0x3cd45ce0	0.025923193
21	0xbcd783fe	-0.026308056
22	0xbce2fb09	-0.027707594
23	0xbc214f60	-0.009845585
24	0x3d7d4a92	0.061838694
25	0x3d4e5723	0.05037607
26	0x3d08611c	0.033295736
27	0xbd2e80f9	-0.042603467
28	0x3e3ff984	0.18747526
29	0xbd3d39ed	-0.04619782
30	0xbdbc4c5f	-0.09194254
31	0x3dcb0746	0.09913497
32	0x3dd9af19	0.106291
33	0x3d9c31f8	0.07626718
34	0xbc21e487	-0.009881145
35	0xbc9ee863	-0.01939792
36	0x3d294986	0.041329883
37	0xbd876ca9	-0.06612522
38	0x3c3d6d73	0.011561739
39	0x3d08af2c	0.033370182
40	0xbcffc4b4	-0.031221725
41	0xb9e225cf	-0.0004313425
42	0x3c8fb512	0.017542396
43	0xbdeaa291	-0.11456788
44	0x3d32c02c	0.0436403
45	0x3dac7c87	0.08422189
46	0xbd1181c2	-0.035524137
47	0x3d83b7f8	0.06431574
48	0xbc4408a5	-0.011964952
49	0x3dd5d51e	0.104410395
50	0x3dc0e677	0.09418958
51	0xbda3453c	-0.0797219
52	0xbdfca686	-0.12336449
53	0xbc5e489c	-0.013567116
54	0xbda64221	-0.08118082
55	0x3d4577f3	0.048210096
56	0x3d8c7295	0.06857792
57	0xbd6b0a85	-0.05738308
58	0xbd6813ee	-0.05665963
59	0x3c3a4c4d	0.011370731
60	0x3c0ee28f	0.008721008
61	0x3c562919	0.013071322
62	0x3dd9eb06	0.1064053
63	0x3bcb8453	0.0062108426
64	0x3c51a96a	0.012796739
65	0x3bbacb9b	0.005700541
66	0xbd113408	-0.03545001
67	0x3d1a138f	0.03761631
68	0x3dd7be3e	0.10534333
69	0xbd4f0914	-0.050545767
70	0x3da27890	0.07933152
71	0xbdad9188	-0.084750235
72	0x3e110e5a	0.14165631
73	0xbd0ad56f	-0.033894952
74	0x3d3d5103	0.046219837
75	0xbd0e3b1f	-0.03472435
76	0xbacc7bcf	-0.0015600863
77	0xbe13ee4e	-0.14446375
78	0xbb8b3653	-0.0042484193
79	0x3e2aed6d	0.16692133
80	0x3ccc9ca7	0.024977041
81	0xbc0c3774	-0.008558143
82	0xbdf303ad	-0.118659355
83	0x3d7f4f0e	0.06233125
84	0x3e014ab6	0.12626156
85	0xbdd1cf20	-0.10244584
86	0x3d15c2ad	0.03656261
87	0x3e0baa18	0.13639104
88	0x3e2f9b32	0.17149046
89	0x3dc35f2e	0.095396385
90	0xbcade04e	-0.02122512
91	0x3d1c831f	0.038210984
92	0x3e291ef6	0.16515717
93	0xbd190984	-0.03736259
94	0xbd912c0a	-0.07088478
95	0x3d900813	0.0703279
96	0x3d1b32af	0.037890133
97	0x3e0693cf	0.13142322
98	0x3d482390	0.04886204
99	0x3c027560	0.007962555
100	0x3abe19e8	0.001450357
101	0xbe0532ce	-0.13007662
102	0x3d67e8ab	0.056618374
103	0x3ba1e3b4	0.0049404744
104	0x3d01d511	0.031697337
105	0x3cd8548b	0.0264075
106	0x3d45c08a	0.048279323
107	0xb985a8b3	-0.00025493428
108	0xbd8c50ff	-0.06851386
109	0xbe370109	-0.17871489
110	0xbc299ce7	-0.01035235
111	0x3c9bb6b8	0.019008026
112	0x3cdb2339	0.026750194
113	0xbde42090	-0.11139023
114	0xbd0b72be	-0.034044974
115	0x3d9d7fcc	0.07690391
116	0xbd865474	-0.06559077
117	0xbc40a2ea	-0.011757592
118	0x3a163019	0.0005729213
119	0x39faeb78	0.00047859154
120	0x3d8c96f6	0.06864731
121	0x3cf1d9c8	0.029522792
122	0x3e0086b7	0.1255139
123	0x3deb319f	0.11484074
124	0xbde6e959	-0.11274976
125	0x3a7104e3	0.00091941486
126	0x3e24c8e7	0.16092263
127	0xbd9b42b3	-0.07581081
128	0xbd9a5e5f	-0.07537531
129	0x3d8cf0e5	0.068818845
130	0x3df1b35c	0.11801788
131	0x3dcf9cec	0.10137352
132	0x3d88d3f6	0.06681053
133	0x3e2bb7bb	0.16769306
134	0x3ba4f577	0.0050341445
135	0xbd7c4915	-0.061593134
136	0x3d914bb2	0.07094516
137	0x3d0c3a7f	0.034235474
138	0xbdf825e0	-0.12116599
139	0x3d82c10b	0.06384476
140	0xbcbd1f4c	-0.023086213
141	0x3ddaf1a8	0.106906235
142	0x3d119d71	0.03555054
143	0x3cfb8dba	0.030707229
144	0xbd6949f2	-0.056955285
145	0x3d9c6f2e	0.07638393
146	0xbd21b0ea	-0.03947536
147	0x3da36935	0.07979051
148	0xbd8a725e	-0.06760095
149	0x3df635e0	0.120219946
150	0x3dca2087	0.09869485
151	0xbdc010a4	-0.09378174
152	0x3e166f1a	0.1469082
153	0xbd9a8849	-0.075455256
154	0x3d1fc18b	0.039002936
155	0xbcf75720	-0.030192912
156	0x3d8bf722	0.06834246
157	0xbcce59ab	-0.025189241
158	0x3d814caa	0.06313451
159	0xbdd24773	-0.10267534
160	0x3dd834fc	0.10556981
161	0x3cea2623	0.028582638
162	0xbc8f9c04	-0.017530449
163	0x3d8e74ee	0.06955896
164	0x3bc1b683	0.0059116497
165	0x3cce41ce	0.025177862
166	0xbd8fbd09	-0.070184775
167	0x3d55d2a2	0.05220283
168	0x3cef97b9	0.029247152
169	0x3d85f3bf	0.065406315
170	0xbe490600	-0.19631195
171	0x3c5e2646	0.01355893
172	0xbda78139	-0.08178944
173	0xbdbb0bea	-0.09133132
174	0x3dd78432	0.10523261
175	0x3c9e02b9	0.019288408
176	0xbc2838de	-0.010267464
177	0x3da1baf1	0.07896984
178	0xbc780592	-0.015138047
179	0x3be16d66	0.0068794964
180	0xbd3fe2fd	-0.046847332
181	0x3e473e2e	0.19457313
182	0x3e0fa729	0.1402861
183	0x3d753f9e	0.059875123
184	0xbe3e18b2	-0.18564108
185	0x3d2c66e3	0.042090308
186	0x3e7611cc	0.24030226
187	0xbce387fc	-0.027774803
188	0xbd23a899	-0.03995571
189	0xbe29ae1b	-0.16570322
190	0x3d40fd73	0.047116708
191	0x3d8f5e3e	0.07000397
192	0xbce197e6	-0.027538251
193	0x3dfb471c	0.122694224
194	0x3d0f1515	0.034932215
195	0x3e1435e4	0.14473683
196	0x3ce9a3da	0.028520513
197	0xbd7d1cc5	-0.061795015
198	0xbda6ca4b	-0.08144053
199	0xbd9b16a5	-0.075726785
200	0x3dce462f	0.1007198
201	0x3db1784a	0.086655214
202	0x3d99a73c	0.075026006
203	0x3d25e48a	0.040501155
204	0xbcc29662	-0.023753349
205	0x3d7e7805	0.06212618
206	0x3da5392a	0.08067544
207	0xbd44b624	-0.048025265
208	0x3d7d17c6	0.06179025
209	0x3e0c14ff	0.13679884
210	0x3d47c70d	0.048773814
211	0xbca00995	-0.019535819
212	0xbd00df92	-0.031463213
213	0xbdd30b10	-0.103048444
214	0x3c0f0e8a	0.008731494
215	0x3d6e5e46	0.058195375
216	0x3ca52b45	0.020162234
217	0xbdf1a9ae	-0.11799942
218	0x3d86bf3d	0.065794446
219	0x3d358579	0.044316743
220	0x3dab69dd	0.08369801
221	0x3cdb30f2	0.026756737
222	0xbdc00295	-0.093754925
223	0xbd931c36	-0.07183115
224	0x3c82ef29	0.015983181
225	0x3dc82cf2	0.09774198
226	0x3d9a8425	0.07544736
227	0x3d3d657f	0.046239372
228	0xbc1176f8	-0.008878462
229	0xbc52d814	-0.0128689
230	0x3e080339	0.1328248
231	0x3c70d601	0.01469946
232	0xbd6b4763	-0.057441127
233	0x3d8b4dfe	0.06801985
234	0xbd860236	-0.065433905
235	0x3c8e57ef	0.017375914
236	0xbdc17df8	-0.09447855
237	0xbdb7e3ed	-0.0897902
238	0x3c8548fe	0.016270157
239	0xbdec7c25	-0.11547116
240	0x3d894c17	0.06703966
241	0xbdca3193	-0.09872737
242	0x3d61530e	0.055010848
243	0xbcf0260c	-0.029315017
244	0xbe34117a	-0.17584792
245	0xbc0bf5bc	-0.008542474
246	0x3d4c51f9	0.049882863
247	0x3d339433	0.043842506
248	0xbc57add8	-0.013164006
249	0x3d74411c	0.059632406
250	0xbda57443	-0.08078816
251	0xbb1d472e	-0.0023998725
252	0xbde9c99a	-0.114154056
253	0xbd2a0084	-0.041504398
254	0x3e01b4c3	0.12666611
255	0x3a8ebc3a	0.0010889836

fc2.bias f4 [128]
0	0x3d72c4b1	0.05926961
1	0x3d7983d4	0.060916737
2	0x3c400b85	0.0117214965
3	0x3d1290f0	0.035782754
4	0x3ce92dd6	0.02846424
5	0x3c5230a8	0.012828983
6	0x3ca89d82	0.020582918
7	0x3db1959f	0.08671116
8	0xbd88c36e	-0.066779
9	0x3d298465	0.041386027
10	0xbd308fc6	-0.043105863
11	0x3c9c34bd	0.019068116
12	0x3ca5f2ec	0.020257436
13	0xbc667aee	-0.014067395
14	0x3c664037	0.014053396
15	0x3d433fec	0.047668383
16	0x3c455e28	0.012046374
17	0x3d8056da	0.062665656
18	0x3d553c3d	0.0520594
19	0x3c9a8c60	0.018865764
20	0x3d832ce5	0.06405047
21	0x3d171a84	0.03689052
22	0xbdefa8e4	-0.11702135
23	0x3cd59700	0.026072979
24	0xbd015af7	-0.03158089
25	0x3d2b5623	0.041830193
26	0xbd8dca2b	-0.06923326
27	0xbac6c3aa	-0.0015164514
28	0xbd759133	-0.059952926
29	0xbc5ce24a	-0.013481686
30	0x3ba26c29	0.0049567414
31	0x3d5f4760	0.054511428
32	0xbd5f3ab6	-0.05449935
33	0xbc5d7543	-0.013516727
34	0x3caf91c9	0.02143182
35	0xbd0fc4f5	-0.035099942
36	0x3d452063	0.04812659
37	0xbcfff473	-0.031244492
38	0x3d846f5c	0.064665526
39	0xbda5cdcc	-0.08095893
40	0x3d0c8456	0.034305893
41	0xbbc498c3	-0.005999656
42	0x3db38419	0.0876543
43	0x3dab9d70	0.08379638
44	0x3d213cf4	0.03936477
45	0xbd4a30bd	-0.049362887
46	0xbdb33667	-0.08750611
47	0x3c2a359b	0.010388757
48	0xbd85a635	-0.06525842
49	0x3c74938b	0.014927755
50	0x3cabc86c	0.020969592
51	0x3c7a9b58	0.015295826
52	0x3c3d2353	0.0115440665
53	0xbcb02aed	-0.021504844
54	0x3b280fa7	0.0025644095
55	0xbc825d04	-0.015913494
56	0x3c01273e	0.007882891
57	0x3ce65993	0.028118884
58	0x3d6d7502	0.057972915
59	0x3d4e31bf	0.05034041
60	0x3d7c7009	0.061630283
61	0x3c198f98	0.009372614
62	0xbd151f22	-0.036406644
63	0x3cbdddce	0.023177054
64	0xbcc633eb	-0.024194678
65	0xbd370814	-0.04468544
66	0xbc36d44c	-0.011159014
67	0xbc9408ed	-0.018070662
68	0x3c4c4ffd	0.012470243
69	0x3cef507b	0.02921318
70	0xbd303851	-0.043022458
71	0x3da06d01	0.07833291
72	0xbd19f24e	-0.037584595
73	0x3c9f4964	0.019444175
74	0x3d7b2d72	0.061322637
75	0xbc8c9ad2	-0.017163668
76	0xbc8cfb33	-0.017209625
77	0xbb8aee06	-0.0042398004
78	0xbc221967	-0.009893752
79	0x3cde6f8c	0.0271528
80	0x3c35207b	0.011055107
81	0x3d0fa2d2	0.035067387
82	0xbd527655	-0.05138238
83	0x3d23a50b	0.03995232
84	0x3d76b057	0.060226765
85	0x3dc9eb37	0.09859317
86	0x3d064e7b	0.03278969
87	0x3d3dbc27	0.046322014
88	0x3d34dc49	0.044155393
89	0x3dd37e79	0.10326857
90	0xbc8dd212	-0.017312083
91	0xbd0bcb25	-0.03412928
92	0xbcb98e6a	-0.022650916
93	0x3d9dfd39	0.07714314
94	0x3d860709	0.065443106
95	0x3cc4ef9c	0.024040036
96	0x3db8169c	0.089886874
97	0x3d19a71b	0.03751288
98	0x3ddcc4ee	0.10779749
99	0xbb9083a5	-0.0044102245
100	0x3dd4403a	0.10363813
101	0x3caccf44	0.021094926
102	0x3d8aa8aa	0.06770451
103	0x3a1fd64f	0.0006097303
104	0xbcc8733c	-0.02446901
105	0x3d7e15a5	0.06203236
106	0x3d66e373	0.056369256
107	0x3d99af46	0.07504134
108	0xba0827fc	-0.00051939464
109	0x3da2445b	0.07923194
110	0x3d7fcd09	0.062451396
111	0xbceb2d19	-0.028708028
112	0x3d28f1be	0.04124617
113	0x3b8c6e56	0.004285614
114	0x3c9574cb	0.018244168
115	0xbc3fe355	-0.011711915
116	0xba97b334	-0.0011573792
117	0x3dc9e910	0.09858906
118	0x3ce2144f	0.027597575
119	0x3d4fec36	0.050762378
120	0xbd61a0dc	-0.055085048
121	0x3d101b68	0.035182387
122	0x3d860a64	0.065449506
123	0x3ca13e0b	0.019682905
124	0x3dec0e0a	0.11526115
125	0x3da6600c	0.08123788
126	0xbc0c125d	-0.0085493
127	0x3c9fc2a5	0.019501993

fc3.weight f4 [2, 128]
0	0xbb901298	-0.004396748
1	0x3dc35c2a	0.09539063
2	0x3db22c2c	0.08699831
3	0xbda7f171	-0.08200348
4	0xbcf09efb	-0.029372683
5	0x3b873505	0.0041261935
6	0x3df40a19	0.119159885
7	0xbc62f158	-0.013851486
8	0x3da00b35	0.078146376
9	0xbe2dfed5	-0.16991742
10	0xbcf6d3fa	-0.030130375
11	0x3e2b30e6	0.16717872
12	0x3d290872	0.04126782
13	0x3e3e031a	0.1855587
14	0x3dcce8ac	0.10005316
15	0x3d3ada39	0.04561827
16	0xbdb7fa86	-0.089833304
17	0x3e88461d	0.26615992
18	0xbd536061	-0.051605586
19	0x3d1873cd	0.03721981
20	0xbbba9fec	-0.0056953337
21	0x3d7ce9ac	0.061746284
22	0xbdcd2f58	-0.10018796
23	0x3db5893b	0.08864065
24	0x3d42a050	0.047516167
25	0x3e3fbb42	0.18723777
26	0xbdaeefb4	-0.085418135
27	0xbd07906a	-0.03309671
28	0xbb8a5d4a	-0.0042225467
29	0x3d856ee1	0.06515289
30	0xbdbc11a3	-0.091830514
31	0xbc1ede22	-0.009696515
32	0x3d05fb8e	0.032710604
33	0x3cb735e7	0.02236457
34	0xbda1069b	-0.07862588
35	0x3e43f005	0.19134529
36	0x3d8bdbb5	0.06829015
37	0x3d04c9b9	0.03241894
38	0xbc467cc6	-0.012114709
39	0xbe557541	-0.2084551
40	0x3e10838b	0.1411268
41	0x3e05cf9e	0.13067481
42	0x3cb0a813	0.021564519
43	0x3c8d53f7	0.017251952
44	0x3e925434	0.28579867
45	0x3e3f8406	0.18702707
46	0xbde758cd	-0.11296234
47	0x3e0a1565	0.13484724
48	0xbb968fca	-0.0045947777
49	0x3e76683a	0.24063197
50	0x3ce4d119	0.027931737
51	0x3c09d9b5	0.008413722
52	0xbd7d7445	-0.06187846
53	0x3db48eb4	0.08816281
54	0x3e3b2c09	0.18278517
55	0xbd67fabc	-0.056635603
56	0xbd57f3ed	-0.05272286
57	0xbda9973f	-0.08280801
58	0xbd363324	-0.044482365
59	0xbe32e362	-0.17469552
60	0x3e185e38	0.14879692
61	0x3de3ab4b	0.11116656
62	0xbd9de989	-0.07710559
63	0x3e63b339	0.22236337
64	0x3e0aa4fa	0.13539496
65	0x3e67b756	0.22628531
66	0xbd91b2ec	-0.07114205
67	0xbd77bddd	-0.060483802
68	0xbd877268	-0.06613618
69	0x3d2aea61	0.041727427
70	0x3ced32eb	0.028954944
71	0x3de9deb7	0.114194326
72	0x3d60b078	0.054855794
73	0x3c40d588	0.01176966
74	0x3da7d61e	0.081951365
75	0xbc80b438	-0.015710935
76	0x3e65a861	0.22427513
77	0x3e037857	0.12838875
78	0xbd8b2ac7	-0.067952685
79	0xbc1d7ace	-0.009611798
80	0xbc93e953	-0.018055594
81	0xbe128b6b	-0.14310996
82	0x3ecbccc9	0.39804676
83	0x3e01b0ea	0.12665144
84	0x3c5087a7	0.012727655
85	0x38dcc0c1	0.00010526321
86	0xbda94493	-0.082650326
87	0xbe09905f	-0.1343398
88	0x3d87cf57	0.06631344
89	0x3c126a56	0.008936485
90	0x3e8419d6	0.2580096
91	0xbd26470a	-0.040595092
92	0xbbaad831	-0.0052137603
93	0x3d03f718	0.03221807
94	0x3e137f5e	0.14404055
95	0x3d320ede	0.04347121
96	0xbab5fd24	-0.0013884646
97	0xbd29082e	-0.041267566
98	0x37012ca7	7.699396e-06
99	0xbe1994e4	-0.14998204
100	0xbcb1deaa	-0.02171262
101	0x3c6df5f8	0.014523976
102	0x3cb32e97	0.021872802
103	0x3d04e046	0.032440446
104	0x3d52edd8	0.051496357
105	0x3d893808	0.0670014
106	0x3e34a253	0.17640047
107	0x3e3e15a1	0.18562938
108	0xbd71b09b	-0.059006315
109	0x3ba7c2d9	0.005119663
110	0xbcca5185	-0.024697075
111	0xbdc894be	-0.09793995
112	0xbdcc4265	-0.09973601
113	0x3dbcba26	0.092151925
114	0xbd5b7874	-0.05358167
115	0x3db6876a	0.08912547
116	0x3e971c13	0.29513606
117	0x3e058f7c	0.13043016
118	0xbdc18812	-0.094497815
119	0x3e31347b	0.17305176
120	0xbdfe8814	-0.124282986
121	0x3ce4ab9b	0.02791386
122	0x3e1c89ff	0.15287016
123	0x3d404827	0.04694381
124	0xba6c8ad3	-0.0009023372
125	0x3e0335f8	0.12813556
126	0xbe5812ed	-0.2110097
127	0x3db3aa3d	0.08772705
128	0xbe3123b8	-0.17298782
129	0xbca9a7a2	-0.020709816
130	0x3bfa2d9b	0.007634831
131	0xbc002250	-0.007820681
132	0xbdb3c1e3	-0.08777215
133	0x3e40e29a	0.18836442
134	0x3dc650a8	0.09683353
135	0xbe97cf11	-0.29650167
136	0x3d964fe7	0.07339459
137	0x3c5c04ce	0.01342888
138	0xbe91da5b	-0.28486905
139	0x3d8bf776	0.06834309
140	0xbdb10cb5	-0.08645002
141	0x3ad1d0dd	0.0016007681
142	0x3c1721ed	0.009224397
143	0xbe0dc9dc	-0.13846534
144	0xbd0d676c	-0.03452246
145	0xbd12bfb6	-0.03582736
146	0x3ce4e154	0.027939476
147	0x3d98e82b	0.074661575
148	0xbeccb9b5	-0.39985433
149	0xbd16692c	-0.036721393
150	0x3dae8922	0.0852225
151	0xbc86593d	-0.016399974
152	0x3d669d7b	0.05630253
153	0xbdae5912	-0.085130826
154	0x3daa0c8f	0.083031766
155	0xbdf19ca6	-0.117974564
156	0x3da1513c	0.07876822
157	0xbdd2e668	-0.10297853
158	0xbd38121e	-0.044939153
159	0xbe8789f6	-0.26472443
160	0x3e084aef	0.13309835
161	0x3d70a05d	0.058746684
162	0x3d0592e8	0.032610804
163	0xbc940664	-0.018069454
164	0xbd660deb	-0.056165617
165	0xbe3d0ce8	-0.18461955
166	0xbe844b14	-0.2583853
167	0x3e1e3e18	0.15453374
168	0xbd10c79a	-0.035346605
169	0x3dbda884	0.092606574
170	0xbeb13266	-0.34608763
171	0xbde13cd1	-0.10997928
172	0x3d90f067	0.07077103
173	0x3d1542cb	0.036440652
174	0x3a6a0d65	0.00089283875
175	0xbda956c1	-0.082685
176	0x3e08b7c4	0.13351351
177	0x3dcefe1c	0.10107061
178	0x3ceb5ebd	0.028731698
179	0xbeaa36d7	-0.33244964
180	0xbc733df6	-0.014846316
181	0xbbcc9a85	-0.006244006
182	0x3e2b3bf9	0.16722097
183	0xbda13722	-0.07871844
184	0x3d5200c2	0.051270254
185	0xbd7f9a65	-0.0624031
186	0xbe80c08e	-0.25146908
187	0xbd5fff3b	-0.054686766
188	0x3c07c7dc	0.008287396
189	0xbeb9b844	-0.36273396
190	0x3d7006c5	0.058600206
191	0xbe1579d4	-0.14597255
192	0x3d731625	0.05934729
193	0x3d1136b6	0.035452567
194	0x3cd13938	0.02553998
195	0x3d38b1e3	0.04509152
196	0x3d2de90b	0.042458575
197	0x3cea1912	0.028576408
198	0x3c205ad0	0.009787276
199	0xbc00d820	-0.007864028
200	0x3d13a916	0.036049925
201	0xbe00d9a4	-0.12583023
202	0x3db60757	0.08888119
203	0xbe82c0a8	-0.2553761
204	0xbdedbc84	-0.11608222
205	0x3bbede7a	0.005824861
206	0x3e4944ff	0.19655226
207	0xbe58b244	-0.21161753
208	0xbde6efc0	-0.112761974
209	0xbcd2c3cd	-0.02572813
210	0x3d794abd	0.06086229
211	0xbe3700cc	-0.17871398
212	0xbeace22c	-0.33766305
213	0xbec41b19	-0.38301924
214	0xbd692178	-0.056916684
215	0xbcfc4f76	-0.030799609
216	0x391c7522	0.00014920955
217	0xbe37c156	-0.17944846
218	0xbdf58d33	-0.11989822
219	0x3e3117d0	0.1729424
220	0x3e2fe685	0.1717778
221	0x3cbd208a	0.023086805
222	0x3d545759	0.051841114
223	0xbd7cf8ae	-0.061760597
224	0xbe1fd4fd	-0.15608592
225	0xbc6c431a	-0.014420295
226	0xbe7fba58	-0.24973428
227	0xbd925cd3	-0.07146611
228	0xbeadede6	-0.33970565
229	0x3d4e32bd	0.050341357
230	0xbc205c30	-0.009787604
231	0x3d93564e	0.07194196
232	0xbe05afb9	-0.13055314
233	0x3d21a8bf	0.03946757
234	0x3d9b4ae3	0.07582643
235	0x3d42f2c8	0.047594815
236	0x3d752cb5	0.05985709
237	0xbe824855	-0.2544581
238	0x3d69087e	0.056892864
239	0x3df6a76f	0.12043654
240	0x3d9ef01d	0.07760642
241	0xbd0e440e	-0.03473287
242	0xbe0d2311	-0.13782908
243	0x3d88d34b	0.06680926
244	0xbe104625	-0.14089258
245	0xbe878d47	-0.26474974
246	0xbe362aae	-0.17789719
247	0xbdf10664	-0.11768797
248	0x3e0078b1	0.1254604
249	0xbedbe297	-0.42946312
250	0x3cc8e55e	0.024523433
251	0xbdf41d92	-0.119197026
252	0xbe7dcfd9	-0.24786319
253	0x3d8cdda6	0.068782136
254	0x3e426bb0	0.18986392
255	0xbd3ed362	-0.04658831

fc3.bias f4 [2]
0	0x3cbe5eef	0.023238627
1	0xbabeb71d	-0.0014550422
